app/ml_models/tweet.onnx (onnx, 16969 bytes, 2 tensors)

coef f4 [768, 5]
0	0x3d776965	0.060403246
1	0x3cc5b4f8	0.024134144
2	0xbd394661	-0.045233134
3	0x3d9ff2af	0.0780996
4	0xbbff7c42	-0.007796795
5	0xbcc3ffda	-0.02392571
6	0x3d73ac3c	0.059490427
7	0x3c7e42fa	0.015518898
8	0xbcf2cb84	-0.02963806
9	0x3dbab19d	0.09115908
10	0xbdfaaaba	-0.12239595
11	0xbc930cb6	-0.017950397
12	0x3dc2a959	0.09504957
13	0x3c02b9b4	0.007978845
14	0x3e308879	0.1723956
15	0xbd9006cc	-0.070325464
16	0xbd868611	-0.0656854
17	0x3dd97650	0.106182694
18	0xbdc473ee	-0.09592424
19	0x3d3389ba	0.04383252
20	0x3da614a1	0.081094034
21	0xbc162edd	-0.0091664465
22	0xbd1ddf2e	-0.03854292
23	0x3b9295b9	0.0044734147
24	0x3854891a	5.0672425e-05
25	0x3dbcc3a4	0.09217003
26	0x3d24a75a	0.04019866
27	0xbd7d4cce	-0.061840825
28	0x3dc0991a	0.09404202
29	0xbe7cb476	-0.24678215
30	0x3d9a0451	0.075203545
31	0x3d89af92	0.067229405
32	0x3e0400c3	0.12890916
33	0x3d735981	0.05941153
34	0xbd7dcaa2	-0.061960824
35	0xbd0f8581	-0.03503943
36	0x3bfd7ea6	0.007736045
37	0x3ddb1bc0	0.10698652
38	0x3e079c93	0.13243322
39	0x3c01690f	0.007898583
40	0xbe78a544	-0.24281794
41	0x3d039cfd	0.032132138
42	0xbd544893	-0.051827025
43	0x3da7ace9	0.08187277
44	0x3bd24f43	0.00641814
45	0xbc0188b3	-0.007906127
46	0xbd96ffbd	-0.07372997
47	0x3d8174ff	0.06321143
48	0xbda4508a	-0.08023174
49	0x3cb8b912	0.022549186
50	0xbd2bb898	-0.04192409
51	0xbc764a73	-0.0150323985
52	0xbdbcafcf	-0.0921322
53	0x3da25c3c	0.079277486
54	0xbe362289	-0.17786612
55	0xbd3dd847	-0.046348836
56	0x3c5d7c85	0.013518457
57	0xbd9d9f54	-0.07696405
58	0x3d9e12a8	0.07718402
59	0x3bfc260a	0.0076949643
60	0xbd56a5ea	-0.05240432
61	0xbd8f6601	-0.070018776
62	0x3b54115e	0.0032358984
63	0x3defc9f9	0.11708445
64	0xbd83e592	-0.064402714
65	0x3d672ca5	0.05643906
66	0x3c049618	0.008092426
67	0x3d4d9287	0.050188567
68	0xbd519a44	-0.05117251
69	0xbcffd669	-0.031230168
70	0x3d884d21	0.06655336
71	0xbd2fce25	-0.042921204
72	0xbb62c0eb	-0.0034599851
73	0x3cc21e5f	0.023696123
74	0xbe8c7848	-0.27435517
75	0x3c889ef7	0.016677363
76	0xbd507648	-0.05089405
77	0xbd3cb372	-0.04606957
78	0xbd3978b1	-0.045281116
79	0x3d3c0a27	0.04590812
80	0xbdeac06e	-0.11462484
81	0x3dc1d61a	0.09464665
82	0xbc952deb	-0.018210372
83	0x3da59e21	0.08086801
84	0xbd1b30f8	-0.037888497
85	0xbe1f90e6	-0.15582618
86	0xbb739d03	-0.0037172444
87	0x3db6b004	0.08920291
88	0x3d83eaec	0.06441292
89	0x3dd30abb	0.10304781
90	0x3a190b66	0.00058381853
91	0x3cf77811	0.03020862
92	0x3d82ef23	0.06393268
93	0xbcf679f1	-0.030087443
94	0x3d258b64	0.040416136
95	0x3cedd02c	0.029029928
96	0xbd973ea3	-0.07384994
97	0x3b5c3b4e	0.0033604684
98	0xbbb47aff	-0.0055078263
99	0xbd97fd38	-0.074213445
100	0x3d9fc57c	0.07801339
101	0xbe0c1db1	-0.13683201
102	0xbd9c73b8	-0.07639259
103	0x3dca404b	0.09875544
104	0x3ba47c38	0.005019691
105	0x3db9b4f9	0.09067721
106	0xbb1db51b	-0.0024064246
107	0xbe1b05f1	-0.15138985
108	0xb9ab29b0	-0.0003264672
109	0x3df22d24	0.11825016
110	0xbc8e8841	-0.017398955
111	0x3cdd0729	0.026980953
112	0xbd2697fa	-0.04067228
113	0xbdbcb93c	-0.09215018
114	0x3d0b9b1d	0.034083474
115	0x3c65bfb8	0.01402276
116	0xbca293b1	-0.019845815
117	0xbd98f184	-0.074679404
118	0xbc99f306	-0.01879264
119	0xbda03651	-0.0782286
120	0xbc99b229	-0.018761711
121	0x3cf892d8	0.030343458
122	0x3e0a2cb2	0.13493612
123	0x3cd8ef90	0.02648142
124	0x3d213a6f	0.039362367
125	0x3d40d2e7	0.047076132
126	0xbd9c5198	-0.0763275
127	0xbc8ef534	-0.017450906
128	0xbe03549f	-0.12825249
129	0xbdbe6cba	-0.09298082
130	0xbdc9b7b2	-0.0984949
131	0x3d8bc73d	0.06825111
132	0x3c5d64ab	0.013512771
133	0xbe1e2431	-0.15443493
134	0x3d047f3e	0.03234791
135	0xbe449fb3	-0.19201545
136	0xbd8145e4	-0.06312159
137	0xbdf0101b	-0.11721822
138	0x3d24e722	0.040259488
139	0x3d5124a2	0.051060326
140	0xbbe532b3	-0.006994569
141	0xbd811004	-0.06301883
142	0xbd85459f	-0.0650742
143	0x3de9cfed	0.11416612
144	0xbe34fdf9	-0.17675008
145	0x3d5cf762	0.05394686
146	0xbd6bda54	-0.05758126
147	0xbd533cc1	-0.05157161
148	0x3c10a8ae	0.008829279
149	0xbcee0a29	-0.02905758
150	0x3da89d3c	0.08233115
151	0x3d70c5f5	0.058782537
152	0xbced07be	-0.028934356
153	0xbde5c29d	-0.1121876
154	0x3c8c3bd9	0.017118381
155	0xbe803c93	-0.25046214
156	0xbb6772e5	-0.0035316285
157	0x3c96ed79	0.018423783
158	0x3df6acda	0.120446876
159	0x3d8d57be	0.06901501
160	0x3df2b78f	0.11851417
161	0xbd02d72a	-0.031943478
162	0xbcdc030a	-0.026856918
163	0xbd17590a	-0.03695015
164	0xbd84f3e1	-0.06491829
165	0x3b14e317	0.0022718364
166	0xbc85c185	-0.016327629
167	0xbd8c846b	-0.06861194
168	0x3e0188c3	0.12649827
169	0x3be2099d	0.0068981186
170	0xbdd2259a	-0.10261078
171	0xbc40642d	-0.011742634
172	0xbd33ba81	-0.043879036
173	0x3dde1af0	0.10844982
174	0xb9ed7e58	-0.00045298296
175	0xbc0f5f11	-0.008750693
176	0xbd6fde02	-0.058561333
177	0x3de6b021	0.11264063
178	0xbd023311	-0.031786982
179	0x3dcf19c0	0.10112333
180	0x3d9427b3	0.072341345
181	0x3dd6c906	0.10487561
182	0x3d9f0b60	0.077658415
183	0x3d1130c9	0.035446916
184	0x3cf4c34d	0.029878283
185	0xbd143c8d	-0.03619056
186	0x3da33c1f	0.079704516
187	0x3d1a1e76	0.037626706
188	0xbd885884	-0.06657508
189	0x3d0a73e9	0.033801947
190	0x3df98ca2	0.12185027
191	0xbdf789cd	-0.1208683
192	0xbb333e16	-0.0027350239
193	0xbdf8f20f	-0.12155544
194	0xbb75493c	-0.0037427684
195	0xbdae4534	-0.08509293
196	0xbd68653a	-0.056737162
197	0x3cbf414b	0.023346564
198	0x3c126190	0.0089343935
199	0xbc50e569	-0.012750008
200	0xbe150d36	-0.14555821
201	0x3d93c31d	0.07214949
202	0xbd8b08af	-0.06788766
203	0x3d2e8b78	0.042613477
204	0xbd0e66a4	-0.034765854
205	0xbd080706	-0.033209823
206	0x3d971688	0.07377344
207	0x3d07565b	0.03304134
208	0xbd53628c	-0.051607653
209	0xbdb78a93	-0.08961978
210	0x3ca723b7	0.020402772
211	0xbd8c2e9f	-0.0684483
212	0xbcdb5f98	-0.026778981
213	0xbb7c8967	-0.0038534047
214	0x3c7a7aa3	0.015288028
215	0xbe03799a	-0.12839356
216	0xbdb4a69e	-0.08820842
217	0xbde21b05	-0.1104031
218	0x3d945a1f	0.07243752
219	0xbd25fa73	-0.04052205
220	0x3cb4a117	0.02204947
221	0x3d3aa79f	0.045570012
222	0xbb4032de	-0.0029327194
223	0x3d69c095	0.057068426
224	0xbc2275df	-0.009915798
225	0x3db2644c	0.08710536
226	0x3ced40f0	0.028961629
227	0x3e0a2437	0.13490377
228	0x3e5e57cd	0.21713181
229	0xbe4cabcc	-0.1998741
230	0xbe0185fe	-0.1264877
231	0xbe967ad8	-0.29390597
232	0xbe1956f5	-0.14974578
233	0xbdc79906	-0.09745984
234	0xbe6fed9c	-0.23430485
235	0x3b3670f3	0.002783832
236	0xbda09efd	-0.078428246
237	0xbd040299	-0.03222904
238	0xbe1d0f78	-0.15337932
239	0x3e603672	0.21895769
240	0xbe161b50	-0.14658856
241	0x3b95a10b	0.004566317
242	0x3dc4a3f4	0.09601584
243	0x3dc99f90	0.09844887
244	0xbd65cce2	-0.056103595
245	0xbe40bdd7	-0.18822418
246	0x3dc933a4	0.09824303
247	0x3d0332d4	0.032030895
248	0x3e051eac	0.12999982
249	0xbcc7561f	-0.024333058
250	0x3c8dd9f4	0.017315842
251	0x3d1a46f7	0.037665334
252	0x3df73c45	0.120720424
253	0xbe1f3ae6	-0.15549812
254	0xbb23f2f0	-0.0025016628
255	0xbd8baa55	-0.06819598

intercept f4 [5]
0	0xc1199e77	-9.601188
1	0xc123781e	-10.2168255
2	0xc108cf0b	-8.550548
3	0xc0c3dc0c	-6.120611
4	0xc0a3fadd	-5.124373
